checkpoint_critic.pth (torch_old, 87865 bytes, 9 tensors)

bn.weight f4 [33]
0.5236221 0.20322601 0.47652322 0.012575537 -0.0030730204 0.06368755 0.00984234 0.032101896
0.04242918 0.03333868 0.06208833 0.06680609 0.071946375 1.0673842 0.30346745 1.0019763
0.07182849 0.04119565 0.04495468 0.05078799 0.04669635 0.043169707 0.030143337 0.34656072
0.17585674 0.3110529 0.85289854 0.19936377 0.92457354 0.006160438 0.95155454 0.075265884
0.9886339
00000000: 190c 063f 7b1a 503e dafa f33e a009 4e3c
00000010: ba64 49bb 9e6e 823d c441 213c 477d 033d
00000020: 38ca 2d3d 248e 083d 5550 7e3d a2d1 883d
00000030: 9f58 933d 0ca0 883f 1660 9b3e c240 803f
00000040: d11a 933d c5bc 283d 6622 383d 1107 503d
00000050: ac44 3f3d b8d2 303d 29ef f63c 6870 b13e
00000060: ca13 343e 5342 9f3e 8f57 5a3f 0426 4c3e
00000070: dab0 6c3f 80dd c93b 1499 733f 0025 9a3d
00000080: 1c17 7d3f

bn.bias f4 [33]
0.15695995 -0.25457138 -0.07865548 -0.003645597 5.3981632e-05 -0.0018301014 -0.0025834497 -0.009432121
-0.0015770394 -0.01047426 0.018594233 -0.08501185 0.00059880276 0.1749154 0.22682379 0.034719184
0.03897053 0.010654254 0.013777622 0.008439204 0.022086326 0.0052844966 -0.00037752234 -0.025513198
0.11776211 0.022774573 -0.01737634 0.00016082815 -0.086580805 -0.00031237616 0.0035580734 -0.007997652
0.04371624
00000000: 1cba 203e 2e57 82be 2016 a1bd f8ea 6ebb
00000010: 566a 6238 03e0 efba 184f 29bb 2f89 1abc
00000020: a9b4 ceba 3b9c 2bbc ef52 983c b11a aebd
00000030: f9f8 1c3a 061d 333e 7f44 683e b435 0e3d
00000040: 909f 1f3d 2e8f 2e3c 89bb 613c 9644 0a3c
00000050: 62ee b43c 9229 ad3b 31ee c5b9 0e01 d1bc
00000060: 432d f13d be91 ba3c d458 8ebc faa3 2839
00000070: 4751 b1bd 6bc6 a3b9 912e 693b 9508 03bc
00000080: cd0f 333d

bn.running_mean f4 [33]
-0.014050344 -2.7304149 0.42147365 0.9122588 -0.0013586064 -0.011438825 0.0548212 0.0046832785
-0.00020715706 -0.0016918558 0.027163697 -0.033930358 -0.029408913 -0.21240486 -2.8824182 0.46019292
-0.010927368 0.045839716 0.008731672 0.23195037 -0.0072325007 0.0068503064 0.021759776 0.06347891
0.05572632 -0.11622526 0.04711874 -0.99999976 -0.0727309 0.0 0.99999976 0.0
-0.009422662
00000000: 6a33 66bc 1ebf 2ec0 65cb d73e cb89 693f
00000010: 4413 b2ba e969 3bbc 328c 603d 3076 993b
00000020: 4d38 59b9 43c1 ddba 6786 de3c 8ffa 0abd
00000030: f6ea f0bc a980 59be 8a79 38c0 689e eb3e
00000040: b408 33bc 6dc2 3b3d 490f 0f3c 6684 6d3e
00000050: 9dfe ecbb 8978 e03b 8f41 b23c 3b01 823d
00000060: 4841 643d 8207 eebd 94ff 403d fcff 7fbf
00000070: f0f3 94bd 0000 0000 fcff 7f3f 0000 0000
00000080: 8261 1abc

bn.running_var f4 [33]
4.0082755 0.29934305 4.130471 0.0029526278 0.06504218 0.006703312 0.09021365 0.326432
0.07157004 0.15230252 2.870622 1.1190648 3.1267955 19.627596 0.8372647 21.730675
0.09776951 0.26632085 0.085547626 0.49560902 2.4631643 0.7782194 0.9412551 8.408
3.695265 10.459716 32.46837 6e-45 31.676533 6e-45 6e-45 6e-45
0.3590737
00000000: cb43 8040 7e43 993e d22c 8440 e080 413b
00000010: d634 853d 75a7 db3b efc1 b83d 1822 a73e
00000020: 5093 923d 31f5 1b3e 45b8 3740 843d 8f3f
00000030: 6b1d 4840 5105 9d41 fb56 563f 6cd8 ad41
00000040: 613b c83d 355b 883e 9833 af3d 77c0 fd3e
00000050: 7ca4 1d40 6339 473f 18f6 703f 2b87 0641
00000060: 397f 6c40 ff5a 2741 9cdf 0142 0400 0000
00000070: 8a69 fd41 0400 0000 0400 0000 0400 0000
00000080: 82d8 b73e

fcs1.weight f4 [128, 33]
-0.14676434 0.3019307 0.17161699 0.21157475 0.38270226 0.5344587 0.14150873 0.2836995
-0.3036597 -0.067372344 -0.43324062 0.7937379 -0.03869591 -0.08893535 -0.093923666 0.1219181
0.45894817 -0.19786105 0.2933001 0.697674 0.27040398 -0.51336086 0.10455649 -0.14474729
0.017687377 0.33262333 0.22902709 0.16464213 0.02302847 0.13556474 0.0642385 0.052121747
-0.08250549 -0.0106133735 0.13162227 -0.008017263 0.10877131 -0.09250274 -0.45685235 -0.1877978
0.28493235 0.11893529 0.5074337 0.48626944 0.027523022 0.32866892 -0.251612 -0.14560336
0.31570533 0.2729008 0.029489717 0.48467934 0.11291567 0.2965702 0.2915572 0.24670404
-0.12737541 -0.0015793194 0.60271335 -0.16334276 -0.09064466 -0.44721732 0.04966932 -0.096210815
-0.07721333 -0.2521802 0.05757315 0.19265151 0.0025650896 0.016317815 0.048263796 -0.13171142
-0.1312752 -0.24070188 -0.04640818 0.09230762 0.060963754 0.113044485 0.23685957 -0.123758666
-0.058783006 0.045936007 0.14339145 0.34038517 0.27451846 0.008931416 -0.0071703563 0.041186545
-0.13181576 -0.083712555 0.072137125 0.15170367 0.13657199 -0.009505843 0.26676124 0.03830832
-0.029796137 0.0288681 0.7557575 -0.29729596 0.4616187 -0.44507772 0.33723772 -0.032002956
-0.3065218 -0.15905873 -0.042066373 0.123998754 -0.1530904 -0.19905682 0.22337686 0.080517344
0.20817047 -0.27697724 0.54538476 0.3282472 0.12771079 -0.538842 -0.19461814 0.21325058
0.19944142 0.058279686 0.10060885 -0.62408495 0.4612855 -0.26073775 -0.041481663 -0.2556482
-0.081374645 0.06396902 0.00757783 -0.11660206 -0.26240036 -0.44484386 -0.023049522 0.41965973
0.40691823 -0.10426689 0.2613412 -0.07793125 0.7690544 0.5961851 0.7624734 0.5912855
0.6135654 0.2838836 0.1554012 0.10396539 -0.13145962 0.59440756 -0.0063095395 -0.36264107
-0.31647047 -0.07616328 0.57283753 -0.36051014 -0.31106323 -0.42323008 -0.22627307 -0.14431147
0.051017713 -0.092314996 0.06850814 0.023041345 0.042438064 0.20220836 -0.045483213 -0.08408965
-0.08142069 -0.16865942 0.08233565 -0.17997316 -0.11216813 0.29990962 -0.0725331 0.20868231
-0.14589317 0.10575075 -0.10472263 0.10785992 0.08133095 -0.37739083 -0.24300693 -0.19314685
0.53900117 0.5885603 -0.49395832 0.23380768 -0.54959875 0.15629713 -0.1398042 -0.05534152
0.0045822426 0.08405861 0.07111717 0.0062293746 0.040765397 -0.04968849 0.3506931 0.46971124
-0.24586318 0.105071776 0.046202242 0.02884919 -0.34535477 -0.35066688 -0.15265003 0.24431552
0.20937951 0.22736025 0.54266393 -0.2015922 -0.3715189 0.4382394 -0.3301117 0.0667219
-0.34481165 -0.41138655 0.3117452 0.17183904 0.34476802 -0.3021464 -0.22839601 0.25004694
0.43499735 -0.004361306 -0.29985645 0.009280223 -0.008377515 -0.008085619 0.26534203 0.022282494
0.018671043 0.23306215 0.12715584 0.3255915 0.36273226 0.083620064 -0.41630903 -0.20070568
-0.1777887 0.1191544 0.10564314 0.42879957 -0.16057773 0.084726855 0.08950128 -0.35566157
0.22002357 -0.40841296 0.3120801 0.19161609 -0.2305449 0.2877061 0.11086796 0.016932765
00000000: 6449 16be a996 9a3e 5dbc 2f3e 0da7 583e
00000010: 8df1 c33e 49d2 083f aae7 103e 1041 913e
00000020: 4979 9bbe 83fa 89bd b7d1 ddbe 6832 4b3f
00000030: 9a7f 1ebd bd23 b6bd 0d5b c0bd 32b0 f93d
00000040: 41fb ea3e 169c 4abe 6e2b 963e c39a 323f
00000050: 6472 8a3e 9e6b 03bf b721 d63d a238 14be
00000060: 1ee5 903c 9b4d aa3e 1486 6a3e f297 283e
00000070: 34a6 bc3c 7cd1 0a3e 7a8f 833d 9d7d 553d
00000080: a3f8 a8bd b7e3 2dbc fdc7 063e d75a 03bc
00000090: 7ec3 de3d 1472 bdbd 8de8 e9be 114e 40be
000000a0: a7e2 913e 5894 f33d 2de7 013f 4ff8 f83e
000000b0: f677 e13c 4b47 a83e 4ad3 80be 0c19 15be
000000c0: 21a4 a13e a7b9 8b3e 6b94 f13c e427 f83e
000000d0: 5540 e73d 0dd8 973e fc46 953e fc9f 7c3e
000000e0: b36e 02be 2a01 cfba 6c4b 1a3f 5343 27be
000000f0: e8a3 b9bd abf9 e4be 0f72 4b3d 2d0a c5bd
00000100: 0622 9ebd c31d 81be d3d1 6b3d 7046 453e
00000110: 101b 283b f0ac 853c 42b0 453d 5cdf 06be
00000120: 026d 06be 8e7a 76be 8116 3ebd c70b bd3d
00000130: 21b5 793d de83 e73d 518b 723e 2f75 fdbd
00000140: 73c6 70bd 6527 3c3d 35d5 123e f746 ae3e
00000150: af8d 8c3e 1355 123c 4ff5 eabb 39b3 283d
00000160: b6fa 06be 7d71 abbd a1bc 933d 3558 1b3e
00000170: 87d9 0b3e 65be 1bbc ee94 883e 2fe9 1c3d
00000180: 0717 f4bc cb7c ec3c 5379 413f 2d37 98be
00000190: 4959 ec3e 3ae1 e3be 6caa ac3e 8815 03bd
000001a0: 6df0 9cbe 4be0 22be ca4d 2cbd 0ff3 fd3d
000001b0: bbc3 1cbe 8dd5 4bbe e7bc 643e 47e6 a43d
000001c0: a42a 553e f6cf 8dbe 569e 0b3f 0410 a83e
000001d0: 9ec6 023e 8df1 09bf fa49 47be 5c5e 5a3e
000001e0: 5f3a 4c3e aeb6 6e3d 030c ce3d 08c4 1fbf
000001f0: 9d2d ec3e 6b7f 85be ade8 29bd 52e4 82be
00000200: c0a7 a6bd 3102 833d 724f f83b 10cd eebd
00000210: 5759 86be 93c2 e3be 5ad2 bcbc a4dd d63e
00000220: 9657 d03e e189 d5bd 84ce 853e 6b9a 9fbd
00000230: c0e0 443f 969f 183f 7531 433f 7d5e 173f
00000240: 9f12 1d3f 3159 913e 7e21 1f3e ceeb d43d
00000250: 5a9d 06be 182b 183f 41c0 cebb 17ac b9be
00000260: 6b08 a2be 7efb 9bbd 7ba5 123f c994 b8be
00000270: ae43 9fbe 9db1 d8be 21b4 67be 63c6 13be
00000280: f3f7 503d a50f bdbd ff4d 8c3d 34c1 bc3c
00000290: 89d3 2d3d b50f 4f3e 9b4c 3abd 3237 acbd
000002a0: e4bf a6bd 0eb5 2cbe 989f a83d e24a 38be
000002b0: 68b8 e5bd c18d 993e 3c8c 94bd d1b0 553e
000002c0: 0565 15be d993 d83d d178 d6bd a9e5 dc3d
000002d0: d790 a63d 5f39 c1be cfd6 78be 4ac8 45be
000002e0: fbfb 093f e3ab 163f 1be8 fcbe 486b 6f3e
000002f0: 81b2 0cbf 5b0c 203e d528 0fbe caad 62bd
00000300: a326 963b ec26 ac3d e1a5 913d c81f cc3b
00000310: 9ef9 263d 2886 4bbd 0c8e b33e fe7d f03e
00000320: 8fc3 7bbe df2f d73d 903e 3d3d 2355 ec3c
00000330: 57d2 b0be 9c8a b3be 4a50 1cbe d92d 7a3e
00000340: 9567 563e 20d1 683e 06ec 0a3f 306e 4ebe
00000350: ba37 bebe ea60 e03e 6704 a9be 7ea5 883d
00000360: 278b b0be 42a1 d2be 119d 9f3e 93f6 2f3e
00000370: 6f85 b03e efb2 9abe a5e0 69be 2706 803e
00000380: f9b7 de3e 49e9 8ebb c986 99be 140c 183c
00000390: d841 09bc 8b79 04bc e9da 873e c789 b63c
000003a0: 04f4 983c d8a7 6e3e 2435 023e eeb3 a63e
000003b0: 0bb8 b93e ff40 ab3d 7526 d5be ca85 4dbe
000003c0: 3e0e 36be 3907 f43d 6e5b d83d 9e8b db3e
000003d0: 7d6e 24be 4685 ad3d 724c b73d 4619 b6be
000003e0: dc4d 613e 811b d1be f6c8 9f3e 0237 443e
000003f0: f613 6cbe 374e 933e be0e e33d 95b6 8a3c

fcs1.bias f4 [128]
-0.65164715 -0.59884584 -0.2809869 -0.38405597 -0.49822614 -0.3274477 -0.39946148 -0.5051919
-0.4690533 -0.44459525 0.12503235 -0.54561204 -0.36112663 -0.4182766 -0.29235908 -0.35389403
0.087158054 -0.5467276 -0.58891726 -0.14735115 -0.2919198 -0.28671968 -0.62015754 -0.3205892
-0.5916964 -0.29883814 -0.30397886 -0.1433972 -0.44501883 -0.21239267 0.07260068 -0.4401503
-0.018275313 -0.080196865 -0.57922846 -0.34095135 -0.43782586 -0.5230642 -0.17576043 -0.39942455
-0.78063345 -0.21338166 -0.5543162 -0.4405057 -0.02371009 -0.25647146 -0.4378391 -0.15665756
-0.26644948 -0.700598 -0.16399667 -0.10331924 -0.3136847 -0.39257833 -0.66887707 -0.317766
-0.492944 -0.36193871 -0.3034645 -0.48192436 -0.657995 -0.2768375 -0.51555276 -0.5562014
-0.3692094 -0.037268654 -0.021948505 -0.6729208 -0.36959863 -0.22604881 -0.38838363 -0.48149416
0.18689784 -0.5766771 -0.52892864 -0.24473962 -0.53992915 0.0047864574 -0.3746478 -0.11583575
-0.6349324 -0.26071784 -0.5369684 -0.010909499 -0.5242505 -0.019603306 -0.65139157 -0.4430599
0.48146042 -0.6810835 -0.12715527 -0.18843615 0.04582933 0.43508074 -0.010756679 -0.2010101
-0.65912014 -0.54421353 0.020615857 -0.523171 -0.37431002 -0.40045717 -0.6608908 -0.4595518
-0.55508643 -0.4073896 -0.1563554 -0.40955257 -0.55175006 -0.25974247 -0.22023883 -0.71155953
-0.50415266 -0.4147903 -0.31350353 -0.4721223 -0.21729735 -0.22287863 -0.156376 -0.47615772
-0.60832095 -0.2135728 -0.48550743 -0.62250453 -0.26494524 -0.49139723 -0.30798632 -0.40519556
00000000: 59d2 26bf f64d 19bf 84dd 8fbe fca2 c4be
00000010: 7f17 ffbe 3aa7 a7be 3786 ccbe 4254 01bf
00000020: c127 f0be fda1 e3be 7b08 003e 3bad 0bbf
00000030: 97e5 b8be 5a28 d6be 17b0 95be 9931 b5be
00000040: ec7f b23d 57f6 0bbf 48c3 16bf 38e3 16be
00000050: 8376 95be eccc 92be a5c2 1ebf 4524 a4be
00000060: 6a79 17bf 5001 99be 1ea3 9bbe b7d6 12be
00000070: 82d9 e3be 777d 59be aaaf 943d 615b e1be
00000080: 1cb6 95bc 413e a4bd 5148 14bf 2d91 aebe
00000090: b62a e0be 89e7 05bf 8bfa 33be 6081 ccbe
000000a0: 98d7 47bf b980 5abe abe7 0dbf f789 e1be
000000b0: aa3b c2bc 3a50 83be 722c e0be d76a 20be
000000c0: 116c 88be 645a 33bf beee 27be 0a99 d3bd
000000d0: 489b a0be 0700 c9be 873b 2bbf 3ab2 a2be
000000e0: 2863 fcbe 0850 b9be b35f 9bbe cabe f6be
000000f0: 5c72 28bf a5bd 8dbe 44fb 03bf 3763 0ebf
00000100: 0409 bdbe 04a7 18bd 5acd b3bc 8a44 2cbf
00000110: 083c bdbe 5779 67be 38da c6be 6786 f6be
00000120: 2662 3f3e 1ca1 13bf de67 07bf 069d 7abe
00000130: cc38 0abf b7d7 9c3b d6d1 bfbe 4b3b edbd
00000140: ee8a 22bf cf7c 85be c376 09bf c1bd 32bc
00000150: 4835 06bf 1d97 a0bc 99c1 26bf bfd8 e2be
00000160: fb81 f63e 7d5b 2ebf fe34 02be 68f5 40be
00000170: 89b7 3b3d e7c2 de3e c83c 30bc 97d5 4dbe
00000180: 19bc 28bf 9451 0bbf 96e2 a83c 89ee 05bf
00000190: 90a5 bfbe b908 cdbe 2430 29bf 604a ebbe
000001a0: 251a 0ebf 5f95 d0be a11b 20be e0b0 d1be
000001b0: 7e3f 0dbf f7fc 84be 4a86 61be c428 36bf
000001c0: 2610 01bf 655f d4be 8983 a0be 04ba f1be
000001d0: 3283 5ebe 4c3a 64be 0821 20be f2ca f3be
000001e0: ecba 1bbf d4b2 5abe 6e94 f8be 755c 1fbf
000001f0: e7a6 87be 6b98 fbbe 62b0 9dbe cb75 cfbe

fc2.weight f4 [128, 132]
-0.022272604 -0.7405647 0.14738254 -0.10128168 -0.5257923 -0.474764 0.11955246 -0.55140245
0.22741356 -0.3130074 0.24051882 -0.2871141 0.12131052 -0.6188933 -0.62624836 0.26283512
-0.35336882 0.10305465 -0.8889779 0.044380445 0.04696531 0.04058034 0.51356715 -0.36878672
-0.5326115 -0.642904 -0.76956385 0.25402945 0.337722 0.055831593 0.12003829 -0.3021821
0.0049166996 0.06354703 -0.074992016 0.03715027 0.051946983 -0.21357408 -0.9184696 -0.5305125
-0.14755654 1.0044187 -0.084191576 -0.38172492 0.12490617 0.33359635 0.16796543 -0.1023391
-0.28645837 -0.3093811 -0.14135943 0.03663414 -0.38977805 0.0762108 -0.42893505 -0.04880976
-0.5419778 -0.5119589 -0.2679733 0.042638395 -0.31939927 0.56347054 -0.4701227 -0.294097
-0.06966181 0.321272 0.25593147 -0.5918483 0.17783284 0.28056753 0.11169192 -0.23866725
0.13350178 0.075529315 -1.1289026 -0.04740985 -0.713558 0.31782895 0.3118225 0.23584245
-0.2751914 -0.6430854 -0.09829068 -0.3756349 -0.4094771 -0.10692855 -0.102590814 -0.49598783
-0.10780853 0.1311436 -0.22302108 -0.24321303 0.0976325 -0.031106029 -0.36422545 0.1570547
-0.4584407 -0.109360486 -0.29124066 -0.4077887 -0.3891568 0.035023645 0.1268373 -0.80818033
0.40050393 -0.3162125 -0.40347764 -0.65156764 -1.0101662 0.024993572 -0.012075894 -0.316852
0.18680587 0.008586722 -0.14059977 -0.025654469 0.16155526 0.8037528 -0.3633764 -0.577615
-0.8695196 0.25984675 0.09086627 -0.24298856 -0.046405334 -0.3739741 -0.15210806 0.11082313
0.020516708 -0.016637443 0.03510102 -0.011855052 0.084965326 -0.49034393 -0.45520848 -0.617093
-0.23841135 -0.26152876 -0.3909044 0.19356531 -0.2516523 0.29919022 0.072390735 -0.29311723
-0.028382838 0.105827 -0.2744576 0.010549736 -0.0081194565 -0.027304396 -0.061688937 -0.21154809
-0.1646699 -0.14219126 -0.09896306 -0.16740713 0.050319497 0.06883619 0.059714124 0.15434192
-0.10090029 0.0750586 0.2199291 -0.13343194 0.027676946 0.02097285 -0.028826265 -0.035410594
-0.041854493 -0.50715977 -0.48111904 -0.31506947 -0.13645668 -0.56875396 -0.25291666 -0.03281215
-0.09592452 -0.5748798 0.10138643 -1.0633187 -0.036444407 0.11616103 -0.17859747 -0.03757593
-0.09156456 -0.20903535 -0.34532326 0.18714027 0.059241675 -0.6293015 0.24524981 -0.14684743
-0.3228379 0.4592385 0.19495605 -0.37227076 -0.37792104 -0.111996286 -0.18343736 -0.32302147
0.20498763 0.22343586 0.18066446 -0.29912013 0.18828446 -0.14590952 -0.23963726 -0.37811068
2.398646e-05 0.029484004 -0.12767945 0.2900427 -0.019343209 -0.25119972 -0.08280454 -0.017064564
0.122804314 0.17586848 -0.08867312 0.12452131 0.23393233 -0.20255719 -0.0256177 -0.16724688
-0.08486598 0.13836752 -0.5678566 -0.5397008 -0.038562078 -0.22253177 0.21549523 0.105884135
0.04354092 0.16011359 -0.08063437 -0.34307992 -0.21822178 -0.21730596 0.06331706 0.33202153
0.1968714 -0.21808466 -0.2672288 -0.26165497 -0.046618957 -0.15633728 0.255998 -0.4325181
-0.0047461973 0.041898623 -0.22907928 -0.21260573 -0.16281565 -0.54577416 0.4435504 -0.303844
00000000: 0975 b6bc a695 3dbf 73eb 163e c56c cfbd
00000010: 539a 06bf 4414 f3be ecd7 f43d b628 0dbf
00000020: 1adf 683e 8242 a0be 914a 763e 9f00 93be
00000030: a671 f83d cb6f 1ebf d051 20bf 5392 863e
00000040: c2ec b4be 510e d33d 0e94 63bf 45c8 353d
00000050: b25e 403d 9237 263d 2379 033f 9dd1 bcbe
00000060: 3a59 08bf 5b95 24bf 2302 45bf 2610 823e
00000070: e6e9 ac3e abaf 643d a3d6 f53d 9db7 9abe
00000080: 441c a13b f224 823d 6a95 99bd e22a 183d
00000090: 5cc6 543d 2ab3 5abe d320 6bbf abcf 07bf
000000a0: 1019 17be cb90 803f a26c acbd 7371 c3be
000000b0: cece ff3d 24cd aa3e 21ff 2b3e 2997 d1bd
000000c0: acaa 92be 3367 9ebe 87c0 10be ae0d 163d
000000d0: fd90 c7be 6814 9c3d 609d dbbe beec 47bd
000000e0: 0fbf 0abf bd0f 03bf cc33 89be 99a5 2e3d
000000f0: 4d88 a3be 9b3f 103f ecb3 f0be e293 96be
00000100: daaa 8ebd c37d a43e 7309 833e 5f83 17bf
00000110: d019 363e 8ca6 8f3e bcbe e43d 3065 74be
00000120: b1b4 083e 1daf 9a3d e17f 90bf d530 42bd
00000130: bdab 36bf 7aba a23e 33a7 9f3e af80 713e
00000140: e3e5 8cbe 3fa1 24bf a04c c9bd 3853 c0be
00000150: fca6 d1be 5bfd dabd 221b d2bd 1ef2 fdbe
00000160: b8ca dcbd 824a 063e a35f 64be d60c 79be
00000170: 8cf3 c73d 12d2 febc c27b babe f3d2 203e
00000180: bdb8 eabe 64f8 dfbd 7f1d 95be aec9 d0be
00000190: 8f3f c7be f474 0f3d a3e1 013e e8e4 4ebf
000001a0: da0e cd3e 9be6 a1be 9f94 cebe 23cd 26bf
000001b0: 204d 81bf 52bf cc3c f8d9 45bc 6d3a a2be
000001c0: 0a4a 3f3e 53af 0c3c 63f9 0fbe 5229 d2bc
000001d0: be6e 253e bec2 4d3f 790c babe 94de 13bf
000001e0: d698 5ebf a20a 853e 1818 ba3d fed1 78be
000001f0: 8513 3ebd 8979 bfbe 37c2 1bbe 3df7 e23d
00000200: a812 a83c 3f4b 88bc 16c6 0f3d b13b 42bc
00000210: 4d02 ae3d 5c0e fbbe 1611 e9be cff9 1dbf
00000220: 1b22 74be 19e7 85be 9f24 c8be fc35 463e
00000230: 92d8 80be 762f 993e 9841 943d 7613 96be
00000240: 2083 e8bc d4bb d83d b585 8cbe cdd8 2c3c
00000250: 7807 05bc 78ad dfbc 8aad 7cbd 10a0 58be
00000260: 3a9f 28be 969a 11be 25ad cabd c66c 2bbe
00000270: d11b 4e3d fdf9 8c3d cc96 743d cf0b 1e3e
00000280: d0a4 cebd 53b8 993d 1835 613e 62a2 08be
00000290: c3ba e23c 41cf ab3c 0f25 ecbc b30a 11bd
000002a0: 9e6f 2bbd 39d5 01bf 3c55 f6be c950 a1be
000002b0: 4dbb 0bbe dc99 11bf 4b7e 81be 0866 06bd
000002c0: 1374 c4bd 532b 13bf b0a3 cf3d d41a 88bf
000002d0: bb46 15bd d6e5 ed3d 41e2 36be 38e9 19bd
000002e0: 3386 bbbd 5d0d 56be 36ce b0be b3a1 3f3e
000002f0: 66a7 723d e719 21bf c422 7b3e 2c5f 16be
00000300: 024b a5be 4f21 eb3e 8fa2 473e 469a bebe
00000310: de7e c1be 4f5e e5bd 01d7 3bbe 1263 a5be
00000320: 47e8 513e 5fcc 643e 1b00 393e 4626 99be
00000330: a4cd 403e 4e69 15be 7863 75be b997 c1be
00000340: 8836 c937 7088 f13c 67be 02be 7a80 943e
00000350: a675 9ebc 409d 80be 6d95 a9bd fcca 8bbc
00000360: d480 fb3d de16 343e 419a b5bd 0705 ff3d
00000370: f58b 6f3e 276b 4fbe 36dc d1bc c442 2bbe
00000380: 37ce adbd 37b0 0d3e 0d5f 11bf d529 0abf
00000390: 45f3 1dbd 5edf 63be c8aa 5c3e c8d9 d83d
000003a0: f757 323d d1f4 233e a223 a5bd 2ca8 afbe
000003b0: 8875 5fbe 7485 5ebe 60ac 813d bafe a93e
000003c0: a898 493e 9651 5fbe 37d2 88be a4f7 85be
000003d0: 85f3 3ebd e116 20be 2b12 833e 0373 ddbe
000003e0: fd85 9bbb e49d 2b3d c293 6abe 51b5 59be
000003f0: 25b9 26be dbb7 0bbf 0a19 e33e 7191 9bbe

fc2.bias f4 [128]
-0.3066726 0.80895543 -1.0033281 -0.062226944 -0.38560018 -0.22619553 0.08173476 -0.5455638
0.038217124 -0.15146525 0.21652527 -0.40113604 0.05635089 -0.08610637 0.10171641 -0.9587584
1.0619358 0.054589808 0.45879173 -0.41440302 0.4529534 0.07848916 0.45171884 -0.56726724
-0.42459214 -0.009817552 0.11113342 0.39149573 0.15773436 0.4897048 -0.6844589 -0.043095473
0.14829282 0.259552 -0.9758693 -0.6725868 -0.017503586 -0.1947383 0.077655226 0.49877912
0.2388972 -0.17163791 0.74489355 0.37335804 -0.11280676 0.33993927 -0.101317726 0.0020121823
-0.32441914 -0.21806239 0.009879756 -0.42163813 -0.25889686 -0.4176253 -0.3325473 -0.29543474
0.47906333 -0.05269271 -0.3591128 -0.37780154 0.030108897 -1.0068055 -0.41159776 0.85699177
-0.0633457 0.31538936 -1.0112997 -0.31202883 -0.2551327 -0.31759182 -0.4629795 -0.46346793
-0.5719115 -0.3542105 -0.41881043 -0.5900064 -0.309622 -0.7061939 -0.10668725 -0.2581142
0.09412624 0.12337935 0.27017093 0.29087383 -0.5634842 -0.6270214 0.33160135 0.7987725
-0.08092866 -0.27183902 -0.28138083 -0.34137535 0.35956594 -0.28929847 -0.1988423 0.5296689
0.6782663 -0.78712136 0.37554848 0.19388433 0.06557577 -0.32708368 0.33453786 -0.05898899
-0.36391008 -0.29424515 -0.1818216 0.31821 0.91798973 0.22277048 -0.26551232 0.11618774
-0.44699374 -0.009950214 -0.23141304 0.27341008 -0.47424904 -0.29419178 -0.24567172 -0.64027333
0.47109598 0.31388918 -0.06495068 0.59524566 0.059622116 0.12670052 -0.76353246 0.1662815
00000000: 3104 9dbe b417 4f3f 0e6d 80bf aee1 7ebd
00000010: 636d c5be cd9f 67be 8e64 a73d 12aa 0bbf
00000020: 8f89 1c3d b519 1bbe cdb8 5d3e b461 cdbe
00000030: 31d0 663d 8958 b0bd b150 d03d 3171 75bf
00000040: 83ed 873f 9099 5f3d c0e6 ea3e a22c d4be
00000050: 82e9 e73e edbe a03d b147 e73e 6d38 11bf
00000060: 2464 d9be ccd9 20bc eb99 e33d 2172 c83e
00000070: 1e85 213e 96ba fa3e b338 2fbf e184 30bd
00000080: 13da 173e 00e4 843e 92d2 79bf a62e 2cbf
00000090: ae63 8fbc 7a69 47be b409 9f3d fa5f ff3e
000000a0: 78a1 743e d9c1 2fbe 58b1 3e3f c928 bf3e
000000b0: 3b07 e7bd 850c ae3e ab7f cfbd d1de 033b
000000c0: 441a a6be bf4b 5fbe b3de 213c f4e0 d7be
000000d0: 218e 84be fcd2 d5be a443 aabe 3943 97be
000000e0: ca47 f53e 50d4 57bd a2dd b7be 346f c1be
000000f0: efa6 f63c 01df 80bf f1bc d2be d063 5b3f
00000100: 64bb 81bd b77a a13e 4572 81bf 3ec2 9fbe
00000110: c1a0 82be 659b a2be a60b edbe ab4b edbe
00000120: cb68 12bf 145b b5be 526e d6be a90a 17bf
00000130: c686 9ebe 20c9 34bf d87e dabd 8b27 84be
00000140: 42c5 c03d 50ae fc3d d853 8a3e 6aed 943e
00000150: 8040 10bf 7984 20bf a7c7 a93e 5b7c 4c3f
00000160: edbd a5bd 7c2e 8bbe 2611 90be c0c8 aebe
00000170: 0719 b83e ee1e 94be 519d 4bbe 6298 073f
00000180: dca2 2d3f c980 49bf e447 c03e 9d89 463e
00000190: 974c 863d 8377 a7be 8c48 ab3e 709e 71bd
000001a0: 6c52 babe 4da7 96be 712f 3abe 6cec a23e
000001b0: 6001 6b3f f21d 643e 3bf1 87be d6f3 ed3d
000001c0: 5ddc e4be 3906 23bc 8af7 6cbe 68fc 8b3e
000001d0: c5d0 f2be 4ea0 96be 5e91 7bbe f4e8 23bf
000001e0: 7e33 f13e 15b6 a03e dd04 85bd 0562 183f
000001f0: 5236 743d c8bd 013e dd76 43bf b345 2a3e

fc3.weight f4 [1, 128]
-0.048993237 0.1466654 -0.32903534 0.04742642 -0.089310616 -0.11458524 -0.01357091 -0.048395026
0.014788522 -0.047459453 0.0605482 -0.0860973 0.048730355 0.0133507885 0.028226845 -0.31232107
0.28301635 0.06694316 0.043053318 -0.09258644 0.0500513 0.03911594 0.054006945 -0.22681105
-0.09216543 -0.098725 0.0225272 0.07327859 0.069389455 0.051308814 -0.21601672 0.15413319
0.11129401 0.031032274 -0.38478374 -0.18497856 0.12448256 -0.0773938 0.07341561 0.048506744
0.037838023 0.058424138 0.12236973 0.04339192 0.06423529 0.056011867 0.04406617 -0.13829085
-0.04194339 -0.10125 0.055879552 -0.16958998 -0.13458276 -0.08170778 -0.066236444 -0.02424949
0.055375375 0.027254792 -0.0843145 0.04484416 0.06893345 -0.3351392 -0.14004858 0.2423075
-0.21131305 0.07654668 -0.32048652 -0.05663485 -0.10709436 -0.096426345 -0.119290814 -0.087901324
-0.19144137 -0.1956945 -0.033958644 -0.2302821 -0.03905928 -0.36493075 0.020735426 -0.17517242
0.025157992 0.043679796 0.032100454 0.024567163 -0.124822855 -0.21893589 0.03474623 0.14958088
-0.12399286 -0.07747008 -0.104685634 -0.23547257 0.070229374 -0.0943109 -0.047041986 0.069965445
0.1168033 -0.21853647 0.058140583 0.07212718 0.080090895 -0.099809356 0.05758724 0.109104864
-0.16184512 -0.1587668 -0.14699359 0.016805915 0.2330763 0.06768562 -0.11886541 0.05877418
-0.28252792 0.0537929 -0.14603305 0.024619037 -0.041360237 -0.033581935 -0.116921164 -0.36801657
0.0775753 0.07409957 0.08122859 0.06493432 0.047028728 0.029174814 -0.28737003 0.026307326
00000000: 22ad 48bd 742f 163e 5277 a8be 3542 423d
00000010: 7ce8 b6bd abab eabd 8658 5ebc dd39 46bd
00000020: 8f4b 723c d864 42bd 6401 783d c853 b0bd
00000030: 7b99 473d 44bd 5a3c fc3b e73c 8ce8 9fbe
00000040: 85e7 903e 7f19 893d ad58 303d f69d bdbd
00000050: 9802 4d3d 0938 203d 6336 5d3d 2841 68be
00000060: 3bc1 bcbd 5530 cabd f68a b83c 1613 963d
00000070: 0f1c 8e3d 3129 523d 7d33 5dbe 17d5 1d3e
00000080: 1dee e33d 6537 fe3c 6002 c5be 056b 3dbe
00000090: b6f0 fe3d a480 9ebd ec5a 963d 02af 463d
000000a0: 0bfc 1a3d 264e 6f3d fb9c fa3d babb 313d
000000b0: cb8d 833d b36c 653d ba7e 343d 1e9c 0dbe
000000c0: d5cc 2bbd 295c cfbd f5e1 643d ffa8 2dbe
000000d0: 10d0 09be 6956 a7bd f9a6 87bd dea6 c6bc
000000e0: 4ad1 623d 7145 df3c 15ad acbd 83ae 373d
000000f0: fb2c 8d3d 5d97 abbe e568 0fbe 751f 783e
00000100: 7362 58be 81c4 9c3d cf16 a4be f2f9 67bd
00000110: 4a54 dbbd 2d7b c5bd be4e f4bd 9c05 b4bd
00000120: 3509 44be 2464 48be 3818 0bbd 12cf 6bbe
00000130: a0fc 1fbd 34d8 babe 57dd a93c 6660 33be
00000140: 2218 ce3c 96e9 323d c47b 033d 1341 c93c
00000150: 20a3 ffbd bb30 60be 1052 0e3d bb2b 193e
00000160: f8ef fdbd a2a8 9ebd 6c65 d6bd b91f 71be
00000170: 6bd4 8f3d 1326 c1bd 19af 40bd 0b4a 8f3d
00000180: 9236 ef3d 06c8 5fbe d224 6e3d 6ab7 933d
00000190: b206 a43d d968 ccbd 99e0 6b3d 5f72 df3d
000001a0: baba 25be c493 22be 7d85 16be 8fac 893c
000001b0: 8eab 6e3e c29e 8a3d b56f f3bd 32bd 703d
000001c0: 80a7 90be f255 5c3d b089 15be ddad c93c
000001d0: 5a69 29bd 368d 09bd 5d74 efbd ab6c bcbe
000001e0: cddf 9e3d 84c1 973d 2d5b a63d 49fc 843d
000001f0: 32a1 403d 0500 ef3c 2a22 93be 7682 d73c
