checkpoint_actor.pth (torch_old, 87363 bytes, 10 tensors)

fc1.weight f4 [128, 33]
000000 b3 9f 32 bf e8 43 98 3e 92 b1 bd be 3b be 0b bc
       -0.6977493 0.29739308 -0.37049538 -0.008529241
000010 48 34 ee bd 23 eb 08 3e d2 f7 77 3e cc e9 c5 bc
       -0.116310656 0.13370948 0.2421563 -0.024159335
000020 0b 3a 5b 3e 71 17 98 be f7 f7 a7 be 6b 49 36 3e
       0.2140886 -0.29705384 -0.3280637 0.17801444
000030 27 eb b9 3d ed 38 50 3f 84 93 3f bc d0 e6 21 3f
       0.09078055 0.8133686 -0.011692885 0.63242817
000040 cb 7b 40 bf 00 23 38 bd b3 69 8f 3e 61 c1 5c be
       -0.75188893 -0.044955254 0.2801033 -0.21558143
000050 48 54 bc 3e 46 94 a4 3d 75 28 4d 3d ee 24 21 3f
       0.36783051 0.080360934 0.05008741 0.62946975
000060 4d 00 42 be ae 34 fb 3e fd 5e 12 bf cd 82 a8 3c
       -0.18945427 0.4906363 -0.5717619 0.020570183
000070 9c 26 c3 3e 7a fe 81 3e 12 17 f3 bc db 0f b4 bd
       0.38115394 0.25389463 -0.029674087 -0.08792087
000080 04 40 22 bf 1a 6a 14 bf d9 ec 1b 3e 9c 89 bb bc
       -0.6337893 -0.579744 0.15227069 -0.022892766
000090 48 09 b4 be bc 4e 0d be 00 2f 58 3d 25 a3 32 3e
       -0.3516333 -0.13799566 0.052779198 0.17445047
0000a0 c9 5f c0 be 47 84 61 be 37 66 f7 bd 47 10 14 be
       -0.37573078 -0.22023116 -0.12080043 -0.14459334
0000b0 98 4a 1a 3d af 33 8a bd b4 2a 10 3f 17 b0 ed be
       0.037668794 -0.06748139 0.5631516 -0.46423408
0000c0 4d 39 4e be 1e f3 8f 3d d4 d1 31 3f 4c 5f 58 be
       -0.20139046 0.07028793 0.694608 -0.21130103
0000d0 b1 45 09 bf 59 9d 54 bd fc 12 d2 be 72 99 93 be
       -0.53621966 -0.05190787 -0.4103011 -0.28828007
0000e0 61 42 0e 3f 0e 6e 36 bd 92 f5 1f 3d 67 6c e5 3e
       0.55570036 -0.04453855 0.039052553 0.44809267
0000f0 dd c1 b1 be a7 c5 d0 be 86 e6 eb 3d 91 36 7b 3f
       -0.34718218 -0.40775797 0.11518578 0.98130137
000100 7e 83 84 3f 08 b4 a8 bd 67 d2 38 3d 7b 31 95 be
       1.0352628 -0.08237463 0.04512253 -0.29139313
000110 0e 7d 00 bf 0b 12 eb 3d a4 4d 92 bd 18 ac 89 3e
       -0.5019082 0.11478051 -0.07143715 0.2688911
000120 49 e2 d9 3e 1c b1 46 bd 56 29 98 3d a6 ea c9 3d
       0.42555454 -0.04850875 0.07429759 0.09859209
000130 a4 d8 70 3e b7 9a 5a 3e 82 51 5d be 04 b3 38 bf
       0.23520142 0.21348082 -0.21613124 -0.72148156
000140 0c f5 44 3f 52 4a ab 3e b5 68 b6 3e 64 6c 92 3e
       0.7693641 0.3345514 0.3562676 0.2859832
000150 f6 29 72 3e 95 ad 84 3d 7d 03 6f bd bd 22 7c 3d
       0.2364882 0.06478421 -0.058352936 0.061556567
000160 06 b7 85 be f6 e6 aa 3e b6 db 08 3f 06 ae 28 be
       -0.26116198 0.33379334 0.5346025 -0.16472635
000170 88 8a 86 3f 84 4a e4 3d 10 bf d6 bd 36 41 e4 3d
       1.0511026 0.11147025 -0.10485661 0.111452505
000180 d4 f8 dc 3e 37 df d2 3e 48 d5 a0 be e0 e1 43 3f
       0.4315859 0.41185924 -0.3141272 0.7651653
000190 96 53 22 3e e7 f1 e3 be b8 c0 d5 3e 36 54 3e 3f
       0.15852198 -0.44520494 0.41748595 0.74347246
0001a0 21 55 18 be fd 6b 86 bd 5d 24 c2 3d b1 f9 78 3e
       -0.14876224 -0.06563566 0.09479592 0.24314
0001b0 08 2b 5a be 2d 0a 8d 3d 65 a3 1a 3e a3 e3 92 bd
       -0.21305478 0.068867065 0.15101393 -0.071723245
0001c0 3b fa bf be be bb 58 be 14 92 81 3f 44 85 83 3e
       -0.37495598 -0.21165368 1.0122705 0.2568761
0001d0 62 f5 e6 3e 9b e9 21 3f 2f aa e2 be e0 2e e4 3e
       0.45109087 0.6324708 -0.44270465 0.44567013
0001e0 26 8d 7c be 7f ac f8 b9 44 94 08 bf b7 b5 0e be
       -0.24663219 -0.00047430766 -0.53351235 -0.13936506
0001f0 d6 0d d1 3e 86 8c 52 3e 72 00 a8 bd d6 36 75 be
       0.40830868 0.20561418 -0.0820321 -0.239467
000200 af ea cc 3d 69 68 d7 3e 87 fd c5 3e 76 06 5a 3e
       0.100057 0.42071846 0.3866999 0.21291527
000210 21 27 af 3e 3e 22 4c 3f a3 d4 51 bf 22 10 c1 bd
       0.3420954 0.7973975 -0.8196508 -0.09426905
000220 02 01 e6 3e c6 f2 49 3e db 66 a0 3e 9e a6 72 be
       0.44922644 0.19721517 0.31328472 -0.23696372
000230 06 99 84 3e 4c 3b d6 3e 0d b1 97 bd 67 59 86 3e
       0.25897998 0.41842115 -0.07406817 0.26240084
000240 f7 20 d5 bd 90 86 b9 3d 40 11 85 bf 8d 90 be 3e
       -0.10406678 0.09058869 -1.0395889 0.37219658
000250 ed 40 41 3f 0e a0 97 3e 83 4a f6 bd 66 51 7b 3d
       0.75489694 0.296143 -0.12025931 0.061356924
000260 86 2c 4a be ff 76 4a bd db db 37 3e 3d 94 46 be
       -0.19743547 -0.04942989 0.17954962 -0.19392486
000270 43 58 39 bf e4 28 87 be 40 39 e3 bc e8 59 e5 be
       -0.724003 -0.26398385 -0.02773726 -0.44795156
000280 32 cc 81 3e 55 0b 51 3a e5 82 41 3f 53 7e 35 3f
       0.253511 0.0007974406 0.75590354 0.7089588
000290 c7 d5 0e be a4 90 2a 3d 9c a5 9e bb ee e6 8b be
       -0.13948737 0.041641846 -0.0048415195 -0.27324623
0002a0 44 d5 16 be 70 ab 83 3e a6 46 a1 be 74 4a 02 3e
       -0.14729792 0.25716734 -0.31499213 0.12723714
0002b0 4f ee a9 be 87 2b 01 3e 5f d5 e1 3d 01 97 03 3e
       -0.33189628 0.1261426 0.110270254 0.12850572
0002c0 eb 37 de 3d fe 33 9a be 82 57 7e 3f b6 27 8c 3e
       0.10850509 -0.30117792 0.99352276 0.27374047
0002d0 1a 2a 2d 3f 01 35 12 be e2 75 9f 3d 42 90 d8 3d
       0.67642367 -0.14278032 0.07786156 0.1057439
0002e0 fc 7a 6d 3e 0a c2 fe bd 64 b9 04 3e ae 81 3a bd
       0.23191446 -0.12439354 0.12961346 -0.04553383
0002f0 23 92 c2 3e 8c a4 a8 3e d5 72 d3 3d 84 d9 8d bf
       0.38002118 0.3293804 0.10324637 -1.1082006
000300 1e 72 a3 bd 91 cc 74 be 0a 3e 0f 3e b8 f3 dc bd
       -0.079807505 -0.23906161 0.1398851 -0.10788673
000310 fa 14 f1 bd 6b e5 e4 3e 14 af 39 bf 82 e6 9d 3e
       -0.11771579 0.44706282 -0.72532773 0.30839926
000320 49 5b a6 be 7f a0 96 3e d6 e7 63 3e fe e8 1d bf
       -0.3249152 0.29419324 0.22256407 -0.6168364
000330 58 db f2 3d f3 ba 27 be a5 56 c1 3d 0d 4b f0 3d
       0.11858243 -0.16379909 0.09440354 0.11733065
000340 17 c8 0a bf a0 92 ef 3e 1b f4 ea bd 62 5f 6d 3e
       -0.5421156 0.46791553 -0.11472341 0.23180917
000350 43 5e 38 bf 85 7c 3b 3d a3 99 0b 3e 8b 4d 10 bd
       -0.7201883 0.045773048 0.13632827 -0.0352302
000360 2e c2 77 be c6 9e 86 bd 16 5e 1b 3f 4e 05 40 3f
       -0.24195167 -0.065732524 0.6069044 0.75008094
000370 f4 67 36 bf e9 79 99 3e 23 4a 58 bf d7 0a 5c be
       -0.7125237 0.29975823 -0.84488124 -0.2148851
000380 a0 c2 a9 3e 0e 92 5c be 56 1d 0e 3e 5a 38 9e 3d
       0.331563 -0.2154009 0.13878378 0.07725592
000390 5b 19 e8 3e 34 f0 b5 3e 93 39 96 be fe a8 9b be
       0.45331845 0.35534823 -0.293408 -0.30402368
0003a0 0e f9 91 be 03 c0 5f 3f fb ba 99 bb ec 21 5d 3e
       -0.28510326 0.8740236 -0.0046914793 0.21594971
0003b0 34 d5 8d 3e 2c fc 7f ba d2 ec ba be e7 6c 0c be
       0.27701724 -0.00097650546 -0.36508805 -0.13713418
0003c0 40 b5 94 3e 0f cf be be d2 08 6e bd a5 94 40 3f
       0.29044533 -0.37267348 -0.05811388 0.75226814
0003d0 ba 8e 76 be 90 5c 56 3e 92 93 30 be 1c 1d 28 be
       -0.24077883 0.20933747 -0.17243794 -0.16417354
0003e0 26 9d 8a 3e 1b 0d 14 bf be 4a fb 3e 61 cd 8b be
       0.2707302 -0.578325 0.4908046 -0.2730513
0003f0 92 70 61 3e 0a 43 1b be ee 4e af 3e d6 73 f1 3d
       0.22015598 -0.15162292 0.34239906 0.11789672

fc1.bias f4 [128]
000000 7a fe 12 be 98 e5 80 bf 24 8b ad be 5b ef 71 be
       -0.14354888 -1.0070066 -0.33895218 -0.23626463
000010 96 10 2c bf ff 2e 66 bd 15 40 e8 be 49 9f 0f bf
       -0.6721281 -0.056197163 -0.4536139 -0.56102425
000020 cd 15 8d bf 1f 7b f8 be 66 eb 03 bf 43 5d 85 be
       -1.1022278 -0.48531434 -0.51531065 -0.26047716
000030 38 e1 40 bf 87 24 fc be f4 bd 66 be 85 5d 1e bf
       -0.75343657 -0.49246618 -0.22533399 -0.6186145
000040 4a b2 7b bc d6 21 15 3e 98 da c0 3e 9a a2 c8 be
       -0.015362332 0.14563689 0.37666774 -0.39186555
000050 03 e0 df be 0c 90 5a bf 30 d7 e0 be 3e a4 12 bf
       -0.43725595 -0.8537605 -0.43914175 -0.57281864
000060 2a 96 ac be 64 62 48 bf 48 d8 64 bf 9e 74 79 bf
       -0.33708316 -0.7827513 -0.8939252 -0.9744357
000070 cb 3d d3 be 9b 58 a1 be 8c e4 54 3e 55 d4 3d bf
       -0.41258082 -0.31512913 0.20790309 -0.7415212
000080 be 20 ca be 3f 16 07 bf 93 84 13 bf 28 d8 d5 be
       -0.39478105 -0.5276832 -0.5762417 -0.41766477
000090 94 5d 17 bf 16 2e 82 bb 1a 36 34 bf 07 eb 60 bf
       -0.59127164 -0.003972779 -0.7039505 -0.87858623
0000a0 27 57 41 be 66 6e e2 bd de 3b 47 bf da b3 db be
       -0.18880902 -0.11056213 -0.77825725 -0.42910653
0000b0 34 d8 48 bf 47 62 08 bd 78 3c 8d be 1f 3c c7 3d
       -0.784549 -0.03329685 -0.27585196 0.09728264
0000c0 0e 1e 3d bd 3f bc 3e bf 1c d6 67 bf b0 b1 1b be
       -0.04617124 -0.7450599 -0.9056108 -0.15204501
0000d0 23 69 01 bf 00 b5 26 bf 24 83 33 bf 2a cb bc be
       -0.5055105 -0.65119934 -0.7012198 -0.36873752
0000e0 9e 72 6e be a7 09 b9 be 9f 8e 6c 3e 0e 70 54 bf
       -0.2328591 -0.36140177 0.2310128 -0.8298348
0000f0 f6 46 f1 3d e0 aa 8c be fd 64 a7 3b 23 7a 10 3f
       0.11781113 -0.27474117 0.0051084743 0.56436366
000100 44 d8 fa be e1 dc 79 bf 5c 2e 22 bf b1 81 15 bf
       -0.48993123 -0.9760266 -0.6335199 -0.5840102
000110 3b 9b 0e bf 51 cd 5c bf 4a 33 f9 be 2a bd 18 bf
       -0.5570561 -0.8625079 -0.48671943 -0.5966364
000120 62 c6 b6 be c9 6c 5b bf b1 03 86 be 4c fa 39 be
       -0.3569823 -0.8571287 -0.2617469 -0.18161887
000130 9f c8 0e bf d7 f8 31 bf e4 6b 9c bf 27 c4 18 bf
       -0.55774873 -0.69520324 -1.2220426 -0.59674305
000140 71 15 87 3e 79 a2 84 bf ca 2a ee be cf 1b 54 bf
       0.26383546 -1.0362083 -0.4651702 -0.8285493
000150 11 3e f9 be 07 49 96 bd 33 67 15 bf 19 de 23 be
       -0.48680165 -0.073381476 -0.58360595 -0.16002692
000160 85 e2 39 be 8e 00 83 be ba 1c 07 bf 5c 94 aa be
       -0.18152817 -0.2558636 -0.5277821 -0.33316314
000170 6b 1f 6f bd 43 54 37 bf 1e 69 15 bf 43 6c 36 bf
       -0.058379572 -0.7161295 -0.5836352 -0.71258944
000180 55 d3 01 bf e4 d9 3e bf 8c 77 ae 3c 15 db c7 be
       -0.5071309 -0.74551225 0.021297239 -0.39034334
000190 fd e8 c2 be b6 5c 40 bf 7c 19 74 be c2 1d b1 be
       -0.3806838 -0.75141466 -0.23837847 -0.34593016
0001a0 94 be 29 be 4b 6e 93 be 5e 2b 93 bf d9 6b e3 be
       -0.16576606 -0.28795084 -1.149761 -0.4441822
0001b0 dd a9 5a bf eb 99 9e be 39 41 bb 3c 98 2f 27 bf
       -0.8541544 -0.30976805 0.022858249 -0.65307
0001c0 c4 e1 91 bf 60 aa 8f 3b b0 36 3e be a3 14 3f bf
       -1.1397023 0.004384324 -0.18575549 -0.74640864
0001d0 6f 99 5b bf 56 92 47 be 5c cb c5 bd 3e 80 0c bf
       -0.85780996 -0.19489416 -0.09657928 -0.5488318
0001e0 00 40 83 3c e3 5b d4 3e c0 04 50 bf 51 0c 5f bf
       0.016021729 0.41476354 -0.8125725 -0.8712817
0001f0 61 0c d8 be d7 78 7c be 01 d1 f6 be 34 71 fc be
       -0.42196944 -0.24655472 -0.48206332 -0.49305117

fc2.weight f4 [128, 128]
000000 15 d7 80 3e 39 37 a9 bd 38 16 7a 3e a5 dd 8f 3e
       0.25164095 -0.08262486 0.24422538 0.2809879
000010 7a cd d0 be ac f8 56 3e 07 de 9b bd 0f cc 1f bf
       -0.40781766 0.20993298 -0.07610708 -0.62420744
000020 ec c2 92 3e 97 69 d1 3e 31 b9 44 bf 2e 4d 84 bf
       0.2866434 0.4090087 -0.7684508 -1.0336053
000030 76 c3 e7 3e 35 b8 2e 3d 0d 8f ed 3d 1a 54 a8 be
       0.45266312 0.042656142 0.115995504 -0.32876664
000040 f4 ca 5b 3d f5 ca c5 bd a8 9a 27 bf ab c9 e4 be
       0.053660348 -0.096578516 -0.6547036 -0.4468511
000050 97 75 92 be 9f 25 ec bd a7 ca 76 3e 47 e7 39 3e
       -0.2860534 -0.11530613 0.24100743 0.18154632
000060 06 86 0a 3f fc ea ef 3e 74 5b 87 bf d2 fa 43 be
       0.54110754 0.46858966 -1.0574784 -0.19138649
000070 21 58 8f bf 8b b5 81 3d 0f 7e 03 3f 2d 02 2d 3f
       -1.119877 0.06333455 0.51364225 0.67581445
000080 9e af ad bd 2f 64 20 3f 9d 63 fc be b2 b6 b2 be
       -0.08480762 0.6265287 -0.4929475 -0.3490501
000090 ae 96 c4 be ed 3f 5f be 35 30 b9 3e 26 bf 22 be
       -0.3839621 -0.2180173 0.36169592 -0.1589323
0000a0 a3 cf 28 bf 1b bb c7 be 09 c8 c7 3e 88 96 d1 3e
       -0.6594183 -0.39009938 0.39019802 0.4093516
0000b0 9f 12 0b 3e a2 84 a8 3d 6e 12 24 3f 9b 16 26 bf
       0.13581322 0.08228423 0.6409062 -0.64878243
0000c0 14 78 8d be d8 c7 8f 3d 23 bc 92 bf c3 cd 19 3e
       -0.27630675 0.07020539 -1.1463665 0.15019898
0000d0 72 4f ae be 20 79 c7 bd 4d f7 be be d6 3d 39 bf
       -0.34044987 -0.097399 -0.3729805 -0.7235998
0000e0 f5 42 03 bf 91 51 83 3e 0c cc 12 bf 0b 79 eb be
       -0.51274043 0.25648168 -0.573426 -0.45990786
0000f0 88 69 8a be 51 ff b5 bd f1 b9 06 3e 2f 52 cd bf
       -0.2703364 -0.08886588 0.13156869 -1.6040705
000100 e1 77 0c 3e 82 65 36 3e ab a5 16 bf 41 3b 50 3e
       0.13717605 0.1781216 -0.5884654 0.20335104
000110 00 84 43 bf 60 51 0f bc 83 e2 d1 3d c4 af 2b 3f
       -0.7637329 -0.008747429 0.10248282 0.6706507
000120 e1 cb 45 3f fa d6 e9 3d 51 fd b7 3e a6 de 66 bf
       0.7726422 0.11417957 0.35935453 -0.90183485
000130 72 51 62 bf a6 62 0e 3f 29 2c 6e 3d 90 cb e8 be
       -0.88405526 0.55619276 0.058147583 -0.45467806
000140 7f db 01 3e 46 9d c9 be 81 9b 6d 3d bf 0b 15 3f
       0.12681387 -0.39377803 0.05800963 0.5822105
000150 b5 b7 97 be 7c 39 2a bf a4 90 4f 3d a2 a5 f0 3e
       -0.29632345 -0.66493964 0.05067505 0.47001368
000160 bb 88 aa 3e c6 7f f9 be 4e 56 92 bf e7 40 c3 3d
       0.33307442 -0.48730296 -1.1432588 0.095338635
000170 e2 ec 28 bf f9 d8 d8 be 22 8e 74 bd 9e b1 99 bd
       -0.65986454 -0.42353037 -0.05970586 -0.07504581
000180 d0 22 37 bf 56 fb 7d bf 7c cf 59 be 71 b1 86 3d
       -0.71537495 -0.99211633 -0.21270555 0.06576813
000190 76 17 e3 3e 07 2a ed 3e b3 e8 25 bf a0 f6 44 be
       0.44353837 0.46321127 -0.64808196 -0.19234705
0001a0 da 57 90 bc 6c 6f da be cb 6f d7 3d f2 6b ef 3e
       -0.017620016 -0.42663133 0.1051937 0.46762043
0001b0 6d 4f 30 3f 4c 20 f9 be 91 95 6e 3e f1 fe c0 3e
       0.68871194 -0.48657453 0.23299243 0.37694505
0001c0 94 93 db be ac 77 bd bd f9 58 d6 be 54 18 67 3e
       -0.4288603 -0.09251341 -0.41864756 0.22567874
0001d0 4d 7d 76 bf 28 fb 9e 3e 57 4f c4 3e 91 02 51 bf
       -0.96284944 0.31050992 0.38341781 -0.8164454
0001e0 77 a4 1f bf 59 7d 3d bf fe 16 8e bf 42 96 52 be
       -0.6236033 -0.7401939 -1.1100767 -0.20565131
0001f0 57 42 4d bf a4 46 09 bf 65 24 df be f6 de 06 bf
       -0.8017935 -0.53623414 -0.43582454 -0.5268396
000200 88 83 6e bd 4d 22 9e 3d aa 8e 48 bf f6 44 15 bf
       -0.058230907 0.07721386 -0.7834269 -0.5830835
000210 41 90 e5 be 93 44 82 3e 8d 17 94 be 5d 86 cd be
       -0.4483662 0.25442943 -0.28924218 -0.40141574
000220 30 2c 22 3f d5 de 5a be ff 58 96 be 70 3f 22 bf
       0.63348675 -0.21374066 -0.29364774 -0.6337805
000230 10 1b b3 3e b7 c7 65 bf b6 94 c1 3e f3 a2 e4 3e
       0.34981585 -0.89757866 0.3780877 0.4465557
000240 5d af cf bd f6 4f 22 bd ae 3d 5d bf aa dc 01 3f
       -0.1014087 -0.039627038 -0.8642224 0.5072733
000250 6b 33 86 3e f7 c6 58 3d 8c 76 34 be 60 5e 00 bf
       0.26211104 0.052924123 -0.17623347 -0.50144005
000260 7e d8 77 3f 9e 0c 76 3e 55 d7 dc be 0c 92 ef bd
       0.96814716 0.2402825 -0.43133035 -0.11697778
000270 50 ee e6 3e 38 6b 22 bf 08 19 a7 be 2c 81 1c 3f
       0.45103693 -0.6344485 -0.32636285 0.611346
000280 a8 91 d3 3e 4a 0d 38 3e cb d3 d7 bd 9a f7 ee be
       0.41322064 0.1797382 -0.10538443 -0.4667328
000290 f8 c7 ec 3d 06 3e 14 bf ca f2 52 3e 7d e5 48 be
       0.115615785 -0.5790714 0.20600429 -0.19618793
0002a0 b7 ef cb 3e 0c 68 1b 3e 9c cd a2 3e ad 97 6c bf
       0.39831325 0.1517641 0.31797493 -0.9241894
0002b0 c4 d0 a4 bf f7 ae e6 bc aa 60 ee 3d 90 6f 5a bd
       -1.287621 -0.028159602 0.11639531 -0.05332905
0002c0 8e c1 8d bf 48 3e e5 be 15 1a af bd 5d 21 0c 3f
       -1.1074693 -0.4477408 -0.08549897 0.5473841
0002d0 7e 8b 84 be 5e 45 67 3f 01 ac 40 3f d4 96 b4 3d
       -0.25887674 0.9034022 0.7526246 0.08817831
0002e0 d7 43 00 bf 65 24 21 3e 8a 8b b4 3e 86 cc a9 be
       -0.50103515 0.1573654 0.3526271 -0.33163851
0002f0 64 ae 32 bf 03 11 16 be 61 b8 4a bf ee ab f5 bd
       -0.6979735 -0.14654927 -0.7918759 -0.119956836
000300 cd f5 4f be 04 a9 21 bf 41 08 80 3e d4 55 bd bc
       -0.2030861 -0.6314852 0.25006297 -0.023112215
000310 1b f9 b0 3e 50 fa 85 3e b6 ba c1 3e 77 34 08 bf
       0.34565052 0.26167536 0.37837762 -0.53205055
000320 68 a9 46 3f 88 ef 63 bf 4c 40 5b bf 36 a4 4f bc
       0.77602243 -0.8903737 -0.85644984 -0.012673428
000330 5e cf ea be ce 2c 9c bd 38 96 89 be 8e a7 4d 3e
       -0.45861334 -0.07625733 -0.2687242 0.20083448
000340 07 cc 7f 3d cd f1 e5 3e 9f 3f db be 02 85 44 be
       0.062450435 0.44911042 -0.42821977 -0.19191363
000350 7d a0 07 bf 2d 23 d9 be 71 fd f0 bd 41 b0 c4 bd
       -0.5297926 -0.4240965 -0.1176709 -0.0960393
000360 fd fc 69 be e4 81 df 3c 2c b5 38 bd 0d 00 31 be
       -0.22850414 0.027283616 -0.045094654 -0.17285176
000370 20 4f e5 be b3 39 2d 3e f8 53 3a bf 3f 8a d3 be
       -0.4478693 0.16916542 -0.72784376 -0.4131641
000380 8d ba 41 bd e1 34 87 be a2 e0 46 3e b3 f7 6f 3e
       -0.04729705 -0.2640753 0.19421628 0.23434334
000390 ae cd 92 be 78 70 66 bd 7d 04 2c be 3a 11 9c bd
       -0.28672546 -0.056259602 -0.16798587 -0.07620473
0003a0 bb 03 ae be df ac e1 3e e4 c6 36 3e 64 57 66 3e
       -0.3398722 0.44077203 0.17849308 0.22494274
0003b0 dd 86 0a bf a2 5e 4e 3e 0b 3e 1e be 39 8f 8e bd
       -0.54112035 0.20153287 -0.15453355 -0.06960911
0003c0 dc 0e 63 3f 76 3e cc 3e 83 df 3e 3e e1 12 96 3e
       0.8869455 0.39891404 0.1863995 0.29311278
0003d0 2c 80 7d bd 9d 5c 97 be ca 7d 1a 3e 49 03 99 3c
       -0.061889812 -0.29562846 0.15087047 0.018678324
0003e0 f4 c7 91 bf b8 74 52 bf 1a d5 1a bf ce e2 1e bf
       -1.1389146 -0.8220935 -0.6048142 -0.62064826
0003f0 5a ca 29 bf 48 a4 b4 be d3 92 06 3f 53 db 57 bf
       -0.6632439 -0.35281587 0.52567786 -0.8431904

fc2.bias f4 [128]
000000 f0 93 65 bc 27 5b 31 3d b7 93 cf be ad b1 05 bf
       -0.014012322 0.04329982 -0.40542385 -0.52224237
000010 da e3 87 3d 29 10 d8 be da c4 23 3f 61 ed 27 bf
       0.06635256 -0.4219983 0.63972247 -0.65596586
000020 93 87 37 bf f8 2f 93 be 74 b5 46 be 00 34 dd be
       -0.71691245 -0.28747535 -0.19405156 -0.43203735
000030 77 d4 1c be e1 61 cf be cc c6 4c 3c c5 de 94 bf
       -0.15315424 -0.40504363 0.012498569 -1.1630484
000040 f1 f2 03 3f d4 0e 38 be a4 6a 2e bf c4 97 24 bf
       0.51542574 -0.17974406 -0.6813147 -0.64294076
000050 6f b5 37 bf a1 59 19 bf 02 7d 41 bd 04 89 a7 be
       -0.7176122 -0.5990239 -0.047238357 -0.32721722
000060 12 bf f1 be 1c d2 26 bf fe 37 1e bf f9 52 46 bd
       -0.47216088 -0.6516435 -0.6180419 -0.048418973
000070 2d 2b e8 be 0d 70 97 be 15 1a b3 bd e0 57 f8 3d
       -0.4534544 -0.29577675 -0.08745209 0.12126136
000080 8e 28 19 bf ff b2 56 bb 17 97 b2 3e f4 78 3b bd
       -0.59827507 -0.0032760499 0.34880897 -0.045769647
000090 9a b8 2f bf 20 3a 3a bf ef 02 2f 3f d3 0a 2a bf
       -0.68641055 -0.7274494 0.6836385 -0.66422766
0000a0 84 6d d9 be cb 86 dd be 9d 80 86 be 6d c7 ba 3e
       -0.42466366 -0.432669 -0.2627 0.36480275
0000b0 6d 20 76 bf 42 33 72 bf 16 5e 3c 3d 13 18 b9 be
       -0.9614323 -0.94609463 0.045988165 -0.3615118
0000c0 0e 2e 63 be 3f a5 93 be 31 88 15 3e 10 0f f1 3d
       -0.22185537 -0.2883701 0.14602734 0.11770451
0000d0 94 43 c3 be 88 9b d3 be b8 8e 13 bf 7b 71 a8 3d
       -0.38137496 -0.41329598 -0.57639647 0.0822477
0000e0 8d bf 00 bf 2a 10 78 3e 3e ac 47 3d 78 0f 7c be
       -0.50292283 0.24224916 0.048748247 -0.24615276
0000f0 78 b0 7c be 5c c9 a6 3c 51 78 f6 be 97 da aa be
       -0.24676692 0.020359688 -0.4813867 -0.33369896
000100 03 69 86 bd 8a 22 a4 3e ab fa 24 bf 0f c3 57 be
       -0.06562998 0.320576 -0.6444499 -0.21070503
000110 e6 2f b7 be 43 05 8f bf 9e 36 35 bf 06 5b 36 bf
       -0.3577873 -1.1173481 -0.70786464 -0.7123264
000120 13 2d 32 bf b7 df 9d be 5b e9 28 3d 99 02 f8 be
       -0.6960003 -0.30834743 0.04123817 -0.48439482
000130 9b 81 9d 3e 8e 14 2f be a9 79 98 be 7f ee da be
       0.30762944 -0.17097685 -0.2978032 -0.42760083
000140 a7 e1 39 be 7f 48 42 3e 89 13 3d bf 75 53 88 ba
       -0.18152486 0.18972968 -0.73857933 -0.0010400849
000150 ea 9c 59 be 6d 29 3d bf 8f 44 14 bf 56 8e 80 be
       -0.21251264 -0.73891336 -0.5791711 -0.25108594
000160 57 e5 4b bf a9 8a b3 be eb a9 3e 3e 9e 11 f9 be
       -0.7964682 -0.35066727 0.18619506 -0.48646253
000170 63 bb 0d bf 4e 07 02 bf 49 ca 9d be fe 86 eb bd
       -0.55364054 -0.50792396 -0.30818394 -0.11500357
000180 28 17 2f be e8 24 38 be 30 67 3a bf b4 14 21 3e
       -0.17098677 -0.17982829 -0.728137 0.15730554
000190 8d fe 06 bf 2d cb b2 be c7 9a 21 be 77 25 b8 be
       -0.52732164 -0.34920636 -0.15781699 -0.35966083
0001a0 bb f2 9e bd 6f 92 b6 3c 44 4f 09 bf a0 3b 0e bf
       -0.07761141 0.022286622 -0.53636575 -0.5555973
0001b0 14 f3 da 3d 49 70 08 3e 38 b4 3c 3e 3f 40 56 bf
       0.10690895 0.13324083 0.18428123 -0.8369178
0001c0 0d a2 ae be 26 61 f9 3e 9d 52 ca be ae e9 f7 3d
       -0.3410801 0.4870693 -0.39516154 0.12105118
0001d0 8e f9 4f bd f3 fa 05 be 4d 1c 76 bf 72 f9 d2 bc
       -0.050775103 -0.13084011 -0.96136934 -0.02575371
0001e0 a1 81 95 bc d2 5a 6a bf af 6a 19 bf 42 71 18 bf
       -0.018250288 -0.9154483 -0.5992841 -0.5954782
0001f0 65 c7 1d bf 81 5a 7e bd c6 fb d7 3d 91 40 b4 3e
       -0.61632377 -0.06209803 0.10546069 0.3520551

fc3.weight f4 [4, 128]
000000 47 fa 6a be 75 67 3b 3f 47 1e 43 3e 3b 9f 84 be
       -0.22947036 0.7320474 0.19054519 -0.25902733
000010 52 72 d9 3e e7 db da be a0 5c df be 4c 7e a8 be
       0.42470032 -0.42745897 -0.43625355 -0.32908857
000020 fa dc 56 3f 4b ee 59 bf fb bb 02 3f 50 a5 f3 be
       0.83930933 -0.8512923 0.51068085 -0.4758706
000030 d3 6a 40 3f f0 78 e3 3c 70 89 3c be 4b b0 b8 3f
       0.75163 0.027767628 -0.18411803 1.44288
000040 49 13 67 3f 01 da 27 bf 77 93 a5 3e 45 08 2a be
       0.902638 -0.6556702 0.3233907 -0.16604717
000050 6f 11 b2 bf f8 46 88 be ca 84 78 bf 4a f2 a1 be
       -1.391157 -0.26616645 -0.9707762 -0.31630164
000060 b0 b7 bd 3e b9 89 0b bf 2d 5c ba 3f aa e2 4e be
       0.37054205 -0.54507023 1.455938 -0.20203653
000070 c9 c5 30 bf 35 1e bf be 14 54 9b 3f 48 06 34 3f
       -0.69051796 -0.37327734 1.2135034 0.70322084
000080 02 79 cb 3e ef b6 33 bf e4 b4 67 3b 67 e7 9a 3e
       0.3974076 -0.7020101 0.0035355622 0.3025467
000090 a7 fe fd 3d ca e7 a2 3e 68 2f 4d bf 01 78 84 3e
       0.12402087 0.31817466 -0.8015046 0.25872806
0000a0 b0 07 2d 3f 13 a2 38 be 52 f9 91 3c 36 5b 50 bf
       0.67589855 -0.18030576 0.01781908 -0.81389177
0000b0 7a 86 a8 3e 6d df 81 3e 24 43 92 bf 6e 30 30 be
       0.32915097 0.25365773 -1.142674 -0.17205974
0000c0 3e f1 78 be 68 41 b9 3e 20 28 aa 3f 42 87 98 bf
       -0.24310777 0.36182714 1.3293495 -1.1916277
0000d0 20 e1 98 be 77 75 6f 3f ae 4e 30 bc bf 2a 60 be
       -0.29859257 0.9353861 -0.010760946 -0.21891306
0000e0 c2 cb e5 be 77 09 c8 bd 8c 51 81 be c4 9f 31 bf
       -0.44882017 -0.0976743 -0.25257528 -0.6938441
0000f0 2e 87 64 3f 37 04 aa 3e be 1b b6 3f ea 53 e2 be
       0.8926877 0.3320634 1.4227216 -0.44204646
000100 0b 1a 79 3f ad 63 83 be d6 98 13 3f 28 fa ed 3e
       0.97305363 -0.25661984 0.57655084 0.46479917
000110 0c e9 93 3e 44 34 16 bf 4b 36 c8 be ef cb d9 3e
       0.28888738 -0.586735 -0.39103922 0.425384
000120 27 27 22 3f e6 92 0c bf 83 75 ea 3e a8 ba a1 3f
       0.6334099 -0.5491165 0.4579278 1.2635088
000130 59 c6 15 3e d7 94 54 3e fb 02 07 bf bc 54 2e 3f
       0.14626445 0.20759903 -0.5273892 0.68098044
000140 09 c3 28 3e b9 6d 50 be 50 51 99 bf e9 d1 1a 3f
       0.1648065 -0.20354356 -1.197794 0.6047655
000150 27 0a b7 3e ae 81 3a 3e ec 54 31 3e eb 4c af 3f
       0.35749933 0.18213531 0.17317551 1.3695349
000160 0a a6 5d 3f 1e f4 a3 3f 8c f2 d7 bd 18 24 50 3e
       0.8658148 1.2808874 -0.10544309 0.20326269
000170 b2 19 25 3e d7 8b e1 3e 25 45 ef bd 3a d1 e1 be
       0.16123083 0.44052002 -0.1168311 -0.4410494
000180 d0 b3 57 3f a9 03 5f 3f 62 e9 33 bf 40 37 a2 bf
       0.8425875 0.8711496 -0.7027799 -1.2673111
000190 28 60 fb ba 02 67 82 3f 8d 30 55 bf 05 65 fb 3e
       -0.0019178437 1.0187685 -0.8327721 0.4910051
0001a0 c1 7f 1d bf 23 16 88 bd fb e2 41 bf e1 fc 12 3f
       -0.6152306 -0.06644847 -0.7573697 0.5741711
0001b0 b6 42 af bf 36 3c d5 3d ef 37 9e bd 21 0f 22 bd
       -1.3692234 0.10411875 -0.07725512 -0.03956521
0001c0 2d 70 5f 3e 4f 35 91 bf 8e 9f 96 3d 56 a6 04 bd
       0.21820135 -1.1344393 0.073546514 -0.032385193
0001d0 6f ef 87 be 91 b0 e1 be b4 39 e1 3e 06 61 7a bd
       -0.2654986 -0.44080022 0.43989336 -0.061127685
0001e0 f2 dd 5b be f6 e0 94 3e a8 fa 14 bf 60 f6 c4 be
       -0.21471384 0.29077882 -0.5819497 -0.3846922
0001f0 be d1 3b 3d d2 93 01 3f 9a eb 90 3f 5f a5 35 be
       0.045854323 0.5061618 1.13219 -0.17738865
000200 76 60 60 3f 09 49 3c bd 0e 52 d2 3d 11 0d 0b bf
       0.8764719 -0.04596809 0.10269557 -0.5431681
000210 9e 90 eb bf 42 31 83 3e 67 bd 43 3f 25 44 fe be
       -1.8403509 0.25623518 0.7646088 -0.49661365
000220 96 91 4d 3f 0e 1e 04 bf ea e3 95 be 24 a6 fc 3e
       0.8030027 -0.5160836 -0.29275447 0.49345505
000230 21 bb ba 3f 28 51 fe be 4b 61 19 be 86 2a 97 bd
       1.4588357 -0.49671292 -0.1497852 -0.073811576
000240 6e 5c b2 3f bc 3f 3f 3f d2 6f cb be f9 0b 40 bd
       1.3934457 0.74706626 -0.3973375 -0.046886418
000250 96 11 ef bd 1b d1 1c 3f f2 70 ff 3e d0 f5 0d bf
       -0.11673276 0.6125657 0.49890858 -0.55453205
000260 65 1f 34 bf 17 7d 87 bf 06 6b 59 bd b8 b2 45 bf
       -0.70360404 -1.0585049 -0.05308058 -0.7722583
000270 02 8d b7 3f 2f ee 10 3f df dd c3 3e f3 c3 c6 3f
       1.4339907 0.5661344 0.38255212 1.5528549
000280 5c 82 29 bf 25 f2 ae be e6 aa 36 bf 3f 3e 1d 3f
       -0.6621454 -0.34169117 -0.7135452 0.61423105
000290 26 ec cf bf 3d e1 23 bd 1f 31 8b bd cf 15 03 3f
       -1.6243942 -0.040009726 -0.067964785 0.5120515
0002a0 fd ca 57 bf 71 d5 e0 be 27 5e 01 3f 61 b6 82 be
       -0.8429411 -0.43912843 0.5053429 -0.2552977
0002b0 df d0 4d 3f 97 4c 3e bf c8 cf 2d 3f 41 26 68 bf
       0.80396837 -0.74335617 0.67895174 -0.9068337
0002c0 de 77 36 bf 27 56 8b 3f 46 d3 0f bf ad 72 1e bd
       -0.7127665 1.0885667 -0.5618175 -0.038683582
0002d0 06 5a 3e bf 0c 2a f0 3e 47 a5 a4 bf a7 bc 64 3d
       -0.74356115 0.4690708 -1.2862939 0.055843975
0002e0 b2 90 d1 3e e1 fe 07 c0 d7 9b a4 3e 3e 10 8b bf
       0.40930706 -2.1249316 0.32150146 -1.0864332
0002f0 64 cd ac be 52 90 8d be 63 37 72 be c8 06 01 3e
       -0.3375045 -0.2764917 -0.23653941 0.12600243
000300 f3 31 c3 3e 6e 8f 30 bf 2d 53 33 3e d5 80 dd 3d
       0.38124046 -0.68968856 0.17512198 0.108155884
000310 3e 76 ab 3e c0 2a e0 be cd 15 aa 3f 52 a0 61 3f
       0.3348865 -0.43782616 1.3287903 0.88135254
000320 8f f3 ad 3d 1a 67 04 3f 06 a5 ee be b5 ea 67 3e
       0.08493721 0.5171982 -0.46610278 0.22648127
000330 0d e6 05 40 fb ef 70 3e 95 82 ef 3c 85 1b b5 3c
       2.0921662 0.23529045 0.029237071 0.022107849
000340 7f c0 c9 3e 80 d7 2e bf 6b ec 82 be d6 7a 24 3f
       0.39404675 -0.68297577 -0.25570998 0.6424993
000350 9d 7f 37 3f 76 9d 58 3f 89 0f be be 4c 93 85 bf
       0.716791 0.84615266 -0.37121227 -1.0435576
000360 48 a4 1d 3e a4 e1 1f bf c6 3c 0a 3f 1b 46 40 bf
       0.153947 -0.62453675 0.5399898 -0.7510697
000370 54 0a 01 3f df 97 87 3f a1 20 d5 3e cc 91 68 3e
       0.50406384 1.0593222 0.41626456 0.22711867
000380 71 ed d8 3d be 58 03 3d 5e 18 0b 3e 91 dd 92 be
       0.10592163 0.032067053 0.13583514 -0.28684667
000390 8c a0 5f bf d3 8b 7b bf 04 37 f9 3f 58 58 c9 be
       -0.8735435 -0.9826023 1.9469914 -0.39325213
0003a0 8c 1b 33 3a f6 44 3d 3f cd 66 8d 3d 4d 66 0c bf
       0.0006832413 0.7393335 0.06904373 -0.548436
0003b0 4e 3c 1f 3e dd 4e 1f 3f 57 88 cc 3e 0b 97 bd 3e
       0.15550348 0.6222971 0.3994777 0.370293
0003c0 a4 be d2 be c7 10 23 bf a7 93 04 be f3 cc 9f bf
       -0.41161072 -0.63697475 -0.1294695 -1.248442
0003d0 be 43 9f 3f f3 83 47 bf d8 01 8f 3e f2 46 03 c0
       1.2442548 -0.77935714 0.27931094 -2.0512052
0003e0 89 f9 3e 3f 3d 20 3a bf 02 83 12 be 3c 55 69 3e
       0.7459951 -0.7270544 -0.14307788 0.2278642
0003f0 20 aa 79 bf 39 91 90 be ba 50 18 bf 50 91 af 3f
       -0.97525215 -0.28235796 -0.5949818 1.3716221

fc3.bias f4 [4]
000000 52 43 13 bd 09 0a 95 be 44 ba f3 3d 23 48 9c bc
       -0.035952874 -0.2910922 0.11900762 -0.019077366

bn.weight f4 [33]
000000 6d d0 91 3f 20 b4 21 3f f3 cf 94 3f c2 f9 21 3b
       1.1391732 0.63165474 1.1625961 0.0024715518
000010 61 e9 0f bd 2e fd 72 3e c9 08 b2 bc 11 f7 72 3d
       -0.035134677 0.23729393 -0.021732705 0.059317652
000020 57 ef 5e 3d e7 f5 09 3e 1f 8e 96 3e f9 08 5a 3e
       0.05442747 0.1347271 0.29405305 0.21292485
000030 a1 fd ba 3e af 45 cd 3f db 13 4c 3f df 89 ca 3f
       0.36521628 1.6036891 0.797178 1.5823325
000040 28 45 87 3d 08 f4 aa 3d 94 9a a2 3d b1 13 04 3e
       0.066049874 0.083473265 0.0793964 0.12898137
000050 a5 47 7a 3e e3 27 5b 3e cd a4 0f 3e 58 e0 4f 3f
       0.24441393 0.21401934 0.1402771 0.81201696
000060 68 af 03 3f dd 25 3e 3f de f2 b0 3f 3d 33 24 3f
       0.51439524 0.74276525 1.3824117 0.64140683
000070 fb ab a2 3f 7a b8 dd 3e 44 94 56 3f 48 fa 42 3e
       1.2708734 0.43304807 0.83819985 0.19040787
000080 24 ef 9e 3f
       1.241673

bn.bias f4 [33]
000000 14 0d 86 3e 0d c5 5f be 30 03 90 bd 46 fe 09 bc
       0.26181853 -0.21852513 -0.07031858 -0.00842244
000010 67 0e ce 3c fb 10 f0 bb 9b 82 8b ba 2e c9 33 3c
       0.025153352 -0.007326243 -0.0010643782 0.010973258
000020 4a 0e 20 ba 28 57 1f bd 41 d3 44 3d 85 bc 8e bd
       -0.0006105645 -0.038901478 0.04805303 -0.06969551
000030 b8 c6 84 3b e4 e7 b3 3e ad 65 97 3d 72 cb 0c be
       0.0040520094 0.35137856 0.0739244 -0.13749483
000040 13 5f 39 bc cc da 78 bc 50 0f 1a bb 66 8e 8f 3c
       -0.011314171 -0.015188884 -0.0023507662 0.017523956
000050 15 16 c1 bc e0 9b da 3c a6 ec a5 ba 73 40 c4 3c
       -0.0235701 0.026685655 -0.0012659028 0.023956513
000060 9f 54 1c 3d e1 8f 4e bc c7 6e 8d bc f5 75 39 3c
       0.03816664 -0.012607546 -0.017264737 0.011319627
000070 70 05 f7 bd 14 f8 1e 3b 41 ae 2a be 2d 4a 6b be
       -0.12061584 0.0024256753 -0.16668035 -0.22977515
000080 50 39 1d 3e
       0.15353894

bn.running_mean f4 [33]
000000 e4 b6 b4 bc cf fb 2e c0 06 23 e1 3e ab af 69 3f
       -0.022059865 -2.7341192 0.43972033 0.91283673
000010 4b 59 47 bb 1c ad 36 bc 22 3f 6a 3d 90 e8 14 bb
       -0.0030418213 -0.011149671 0.057189114 -0.0022721626
000020 29 33 47 3a da f2 43 bb 60 9d 99 3c bd 5a 0f bd
       0.0007598871 -0.002989939 0.0187518 -0.034998644
000030 6b 14 03 bc 77 28 4d be bc 7d 39 c0 9c 47 06 3f
       -0.0080004735 -0.20034967 -2.8982992 0.5245302
000040 7b 44 47 bb c3 be 3c 3d 7f 64 95 3b f3 d2 61 3e
       -0.0030405808 0.046080362 0.004559099 0.22053127
000050 8f 90 2b 3c 21 75 55 bb 9c 6f 9e 3c b8 da 2f 3d
       0.010471477 -0.0032571035 0.019340329 0.042933196
000060 56 45 aa 3d 41 61 81 bd 62 9b 86 3d fc ff 7f bf
       0.08314006 -0.06317378 0.06572606 -0.99999976
000070 a8 52 61 3c 00 00 00 00 fc ff 7f 3f 00 00 00 00
       0.013752617 0.0 0.99999976 0.0
000080 da e1 78 bc
       -0.015190566

bn.running_var f4 [33]
000000 08 c1 7b 40 98 4a 99 3e 26 2e 85 40 09 93 2e 3b
       3.9336567 0.29939723 4.1618834 0.0026637933
000010 8b 9b 82 3d 16 6c d2 3b 7b a6 b9 3d 7d ff aa 3e
       0.06377324 0.0064215763 0.09064957 0.33398047
000020 a9 a5 94 3d c6 7c 1b 3e 15 e0 38 40 19 89 8f 3f
       0.0725816 0.15184316 2.888677 1.1213714
000030 8a 8b 4c 40 d6 23 9b 41 ee 29 65 3f c3 a0 ae 41
       3.1960168 19.392498 0.89517105 21.828497
000040 e3 8c c8 3d f4 e6 88 3e 60 05 b2 3d e9 3e fe 3e
       0.09792497 0.26738703 0.086924314 0.49657372
000050 71 e9 1f 40 45 c0 4c 3f d6 6f 68 3f 66 fb 04 41
       2.4986231 0.7998088 0.9079565 8.311377
000060 d4 c0 74 40 13 34 23 41 34 11 02 42 04 00 00 00
       3.8242693 10.200213 32.5168 6e-45
000070 38 86 fc 41 04 00 00 00 04 00 00 00 04 00 00 00
       31.565536 6e-45 6e-45 6e-45
000080 18 8f b5 3e
       0.35460734
